app/src/main/ml/potability-iot-v2.tflite (tflite, 629161 bytes, 7 tensors)

sequential_12/dense_50/BiasAdd/ReadVariableOp f4 [64]
0	0xbc8361f8	-0.016037926
1	0xbc931204	-0.017952926
2	0xbb34d60c	-0.0027593402
3	0xbc0bc4a7	-0.008530772
4	0xbc8576f5	-0.016292075
5	0x3b4dcc3f	0.0031402258
6	0xbc08b508	-0.008343942
7	0xbc0b1e94	-0.008491177
8	0xbc6c5ca1	-0.014426381
9	0x3cc019a3	0.023449725
10	0x3c81dd51	0.015852602
11	0x3cc3c207	0.02389623
12	0xba686caf	-0.0008866293
13	0xbbcdf23f	-0.0062849815
14	0xbc99e3ab	-0.018785318
15	0x3c29507c	0.01033413
16	0xbb5ef630	-0.003402125
17	0xbbe2108f	-0.0068989466
18	0x3c84527a	0.01615261
19	0x3c677753	0.01412757
20	0x3cdb7c6d	0.02679273
21	0x3c9e6e90	0.01933983
22	0x3c693834	0.014234591
23	0x3bf7f276	0.0075667454
24	0xbbe69b2c	-0.007037541
25	0xbb8eaa80	-0.0043538213
26	0x3b32d269	0.0027286059
27	0xbb0e1f8b	-0.0021686282
28	0x3c5ff18b	0.013668428
29	0x3bd3cafa	0.0064634057
30	0x3c87d1e4	0.016579576
31	0xbc311164	-0.010807369
32	0x3c8f41af	0.017487375
33	0x3c94e902	0.018177513
34	0xbc253297	-0.010082862
35	0x3c243399	0.010022067
36	0x3bc85e94	0.00611479
37	0xbb8085c5	-0.0039221966
38	0x3c71184d	0.014715266
39	0x3ac2f8c0	0.0014875159
40	0x3cbd00ed	0.02307173
41	0xbb021b55	-0.0019852717
42	0x3c703320	0.014660627
43	0xbce18f52	-0.02753416
44	0x3c9bba27	0.019009663
45	0x3c8214b2	0.015879009
46	0xbc21608c	-0.009849679
47	0x00000000	0.0
48	0x3c9ffb45	0.019528994
49	0x3c9b7db0	0.01898083
50	0x3c41291b	0.011789585
51	0x3c944f51	0.018104227
52	0x3c49ffc9	0.01232905
53	0x3ca78304	0.020448215
54	0xbcecb9d7	-0.02889721
55	0x3c8a6af3	0.0168967
56	0x3ca05eb1	0.019576402
57	0x3c0a68e6	0.008447861
58	0xbcad0268	-0.021119311
59	0x3cd8bf5c	0.026458435
60	0x3d00e752	0.031470604
61	0x3c2fcaa8	0.010729469
62	0x3c558e18	0.013034366
63	0xbc1fe3ad	-0.009758872

sequential_12/dense_49/BiasAdd/ReadVariableOp f4 [256]
0	0x3c218a20	0.009859592
1	0x3c0284a3	0.007966193
2	0xbc74e892	-0.014948027
3	0x3cd34828	0.025791243
4	0xbc7a55cf	-0.015279247
5	0x3cd121b5	0.025528768
6	0x3c8d29f2	0.017231915
7	0xbc987f00	-0.018615246
8	0x3c852efb	0.016257754
9	0xbcf00f95	-0.029304305
10	0xbd0f1f4a	-0.03494195
11	0xb939d83d	-0.0001772353
12	0xbb9fd307	-0.0048774513
13	0x3c8bb7a6	0.017055344
14	0xbd00920d	-0.031389285
15	0x3c10686e	0.0088139605
16	0xbc39fd07	-0.01135183
17	0xbc2c560a	-0.01051856
18	0xbc28f0a0	-0.010311276
19	0x3c2f471f	0.010698109
20	0x3b6fd83f	0.0036597399
21	0x3c48c045	0.012252872
22	0x3c477824	0.01217464
23	0x3c2a5a16	0.010397455
24	0xbc268194	-0.01016273
25	0xbb6c0fa0	-0.0036020055
26	0x3c5e2a5f	0.013559907
27	0x3c8ab552	0.016932163
28	0xbcc351de	-0.023842748
29	0xbc693149	-0.014232942
30	0x3c397234	0.011318732
31	0xbb073887	-0.0020633058
32	0xbc801a45	-0.015637526
33	0x3d1894f0	0.037251413
34	0x3b8c797b	0.0042869425
35	0x3c6b1372	0.014347898
36	0xbc1601b6	-0.009155681
37	0x3c8f5851	0.017498167
38	0x3b40077c	0.0029301336
39	0x3d1fef89	0.039046798
40	0x3c19642f	0.009362265
41	0x3d3072a1	0.04307807
42	0x3cbf9348	0.023385659
43	0x3c34bae8	0.01103089
44	0x3aec2192	0.0018015376
45	0x3caf08b6	0.021366458
46	0xbc87c371	-0.016572686
47	0x3be51146	0.0069905845
48	0xbc06baab	-0.008223216
49	0x3c268176	0.010162702
50	0xbc560ae7	-0.013064123
51	0x3cd657d5	0.026164928
52	0x3b9a5bfc	0.0047106724
53	0x3a5c5da8	0.000840629
54	0x3cf70772	0.030154917
55	0x3cd52a1a	0.026021052
56	0xb9c41b16	-0.00037404214
57	0x3cd07606	0.025446903
58	0xbc1145f6	-0.008866778
59	0x3b0c9dd8	0.0021456387
60	0xbc313c41	-0.010817588
61	0x3c06e9b6	0.008234432
62	0x3cc8fc98	0.024534509
63	0x3c54dda8	0.0129923
64	0xbc5dcef6	-0.013538113
65	0xbc2edd56	-0.010672888
66	0xbc345ed9	-0.011008942
67	0x3bdc2f2c	0.0067194905
68	0x3cdcd0ff	0.026955126
69	0x3c8c85c3	0.017153626
70	0x3ca338f6	0.019924622
71	0x3c929757	0.01789443
72	0x3cf06f26	0.029349875
73	0x3bda1298	0.0066550486
74	0x3c2cd801	0.010549546
75	0x3c2654f8	0.010152094
76	0xbc9a1307	-0.018807901
77	0x3c3767e9	0.011194208
78	0x3c8722cc	0.016496085
79	0x3c1db293	0.009625095
80	0xbd28f88c	-0.041252658
81	0xbaa99694	-0.0012938553
82	0x3cae4e47	0.02127756
83	0x3d29d07b	0.041458588
84	0x3d5cf9af	0.053949054
85	0x3bad402c	0.005287191
86	0x3c7422c7	0.01490087
87	0x3cb077c4	0.021541484
88	0xbc8f5aa4	-0.017499276
89	0x3cb49997	0.022045894
90	0x3a371daa	0.0006985316
91	0x3d06ab25	0.03287806
92	0xbc68ccfe	-0.01420903
93	0xbd3f7ca0	-0.04674971
94	0x3b03d91b	0.0020118419
95	0x3cd53af6	0.026029091
96	0xbcf5a6b0	-0.02998671
97	0x3a805f1e	0.0009793972
98	0xbc52362a	-0.0128302965
99	0xbb495c70	-0.0030725263
100	0xbcb26d7f	-0.021780727
101	0x3cabe8e6	0.020985078
102	0x3c842510	0.016130954
103	0x3be586f6	0.007004614
104	0x3b1c58e9	0.0023856706
105	0xbb3bdd2e	-0.002866577
106	0x3cf6fe13	0.030150449
107	0xbc9d0211	-0.019166024
108	0x3cbe3e69	0.023223119
109	0xbb71cb1c	-0.0036894744
110	0xbd6119d9	-0.05495629
111	0x3c65d0f2	0.014026867
112	0x3c86790e	0.016415145
113	0x3ac58cf7	0.0015071918
114	0xbbcc8c79	-0.0062423316
115	0xbc40b86c	-0.01176272
116	0x3cd3d37d	0.025857681
117	0xbb3e8cb5	-0.0029075567
118	0xbc04ce2b	-0.008105795
119	0x3c6776f0	0.014127478
120	0x3b4bb4d3	0.0031083121
121	0xbbb98089	-0.0056610745
122	0x3c1bc47d	0.009507296
123	0xba8eae99	-0.0010885774
124	0x3b2d73f7	0.0026466826
125	0x3b353ba2	0.0027653952
126	0xbce139dd	-0.027493412
127	0x3d07853d	0.03308605
128	0xbc500f46	-0.012698954
129	0x3cc90572	0.02453873
130	0xbc17061d	-0.009217766
131	0x3cf7e273	0.030259347
132	0x3bd67f60	0.006545946
133	0xba9711cb	-0.0011525688
134	0xbc1f37b3	-0.00971787
135	0xbb1f72e1	-0.0024329948
136	0x3d05121a	0.032487966
137	0xbca5afc3	-0.020225411
138	0x3c7c9697	0.015416763
139	0x3cc71b1c	0.024304919
140	0x3c7f8586	0.015595799
141	0xbc114542	-0.00886661
142	0xbc394a57	-0.011309228
143	0xbcd301e0	-0.02575773
144	0xbd2ccfdd	-0.04219042
145	0xbc0aa765	-0.0084627615
146	0x3bb8c8d3	0.0056391745
147	0x3c0d111b	0.008610035
148	0x3c8ecd13	0.017431771
149	0x3d005d1b	0.031338792
150	0xbca7c792	-0.020480905
151	0xbbfcdbcf	-0.007716633
152	0xbcb98063	-0.022644227
153	0xba11b190	-0.000555777
154	0x3be13bd4	0.006873587
155	0x3cb6822f	0.022278873
156	0x3c4d60f2	0.012535321
157	0x3a6bfec1	0.00090025
158	0xbc3dd70e	-0.011586918
159	0x3c55f96e	0.013059957
160	0xbc2e5b09	-0.010641822
161	0x3c0abebc	0.008468326
162	0xbafa86dd	-0.0019113679
163	0xbba9ddc5	-0.0051839077
164	0xbc5de2b7	-0.013542823
165	0x3976e21a	0.00023544618
166	0xbc3af6c9	-0.011411377
167	0x3badad18	0.0053001754
168	0xbc082a90	-0.008310929
169	0xbb33c772	-0.002743211
170	0xbca46d02	-0.02007151
171	0x3cdbb538	0.02681981
172	0x3cd92ce6	0.026510667
173	0x3d3bb420	0.045826077
174	0xbd41d617	-0.047323313
175	0xbb5c5b5d	-0.0033623793
176	0x3cb8d15d	0.02256077
177	0xbbcf6d05	-0.006330135
178	0xbc9db235	-0.019250015
179	0x3c32c27e	0.010910628
180	0x3c33d496	0.010975977
181	0x3cc731b3	0.02431569
182	0xbcb30737	-0.021854026
183	0x3c53393d	0.012892065
184	0xbc7a9220	-0.015293628
185	0x3d08eb01	0.033427242
186	0x3bc69579	0.006060299
187	0x3ca6a75c	0.020343475
188	0x3c9502ed	0.018189872
189	0x3cbd52f1	0.023110839
190	0xbce4dae2	-0.027936403
191	0x3cdcdc13	0.026960408
192	0xbb5a998c	-0.0033355681
193	0x3d6941c8	0.0569475
194	0x3bbe2dc4	0.0058037955
195	0x3c86ce28	0.016455725
196	0x3b112a12	0.002215032
197	0xbc13e2fe	-0.009026287
198	0xbc2b3b7b	-0.010451193
199	0xbcb081ba	-0.021546233
200	0x3d040e04	0.03223993
201	0xbb991d8c	-0.0046727117
202	0x3cc9026e	0.024537291
203	0xbb74455b	-0.0037272784
204	0x3d1fd0e7	0.039017584
205	0x3c4c8de5	0.012485002
206	0x3c35d820	0.0110988915
207	0x3b3a8bae	0.0028464603
208	0x3d279f78	0.040923566
209	0x3b182f05	0.0023221385
210	0xbd12718b	-0.035752814
211	0xbcbb29fa	-0.022847164
212	0xbc56d696	-0.013112685
213	0x3d06ee08	0.032941848
214	0x3d53030b	0.051516574
215	0xbb9e887a	-0.0048380466
216	0x3c11d6d9	0.008901321
217	0xbd1cb19d	-0.038255323
218	0x3d3a4287	0.0454736
219	0xbb82a158	-0.003986519
220	0x3b9a6ff9	0.004713055
221	0xbc05fba8	-0.008177675
222	0xbb40d8c8	-0.0029426087
223	0x3b9c791a	0.0047751786
224	0xbab590dc	-0.0013852376
225	0xbcaeb588	-0.021326795
226	0x3d05d7c6	0.03267648
227	0xbb685037	-0.0035448202
228	0xbbec0f87	-0.0072039994
229	0x3cec8852	0.028873596
230	0x3c74c513	0.014939564
231	0x3c051354	0.008122284
232	0x3cf53e7c	0.029937021
233	0x3d00e7db	0.031471115
234	0x3a5587eb	0.00081455585
235	0x3bf23610	0.0073916987
236	0x3b01fbb9	0.0019833876
237	0x3c39bb88	0.011336215
238	0x3bf554c2	0.0074869106
239	0x3a0cc863	0.0005370436
240	0x3c203ea3	0.009780559
241	0x3d025ce0	0.031826854
242	0x3c14fa6a	0.0090929065
243	0xbc67edab	-0.014155786
244	0x3c44d3cb	0.012013386
245	0x3cf99e1a	0.030470897
246	0xbb3bd053	-0.0028658106
247	0xba45018f	-0.0007515186
248	0x3c6119be	0.013739048
249	0x3b48aa3e	0.003061905
250	0x3ce286fd	0.027652258
251	0xbd0d7944	-0.034539476
252	0x3c348afe	0.011019466
253	0x3b22869b	0.002479947
254	0x3c6ff5ee	0.014646037
255	0x3bdd555b	0.00675456

sequential_12/dense_48/BiasAdd/ReadVariableOp f4 [32]
0	0x3bfd2c5d	0.007726236
1	0xbce680f5	-0.028137663
2	0x3b6b38c0	0.003589198
3	0x3d811e35	0.0630459
4	0x3cf30363	0.0296647
5	0x3d102343	0.03518988
6	0x3ce2be05	0.027678499
7	0xbc28d9da	-0.010305846
8	0x3d276f6b	0.04087774
9	0x3dc0eb65	0.09419898
10	0x3cd03f9c	0.025420956
11	0x3d2fe54a	0.042943276
12	0xbbf00d5d	-0.007325812
13	0xbc832251	-0.016007574
14	0x3d238ae6	0.039927386
15	0xbb0e07bb	-0.0021672088
16	0x3d206ea0	0.039168
17	0x3d460b7f	0.048350807
18	0x3c1e9df0	0.00968121
19	0x3d4ef7a9	0.050529156
20	0x3d821ea8	0.063535035
21	0x3c81aa9b	0.015828421
22	0xbc90412a	-0.017609198
23	0x3d733e80	0.059385777
24	0xbb5f1e31	-0.0034045095
25	0xbd0d30ff	-0.034470554
26	0xbc7bf3d3	-0.015377956
27	0x3c305d0a	0.01076437
28	0x3d544b35	0.051829536
29	0x3b89b27c	0.004202185
30	0x3d2aa0cc	0.041657254
31	0xbbff80a6	-0.0077973185

sequential_12/dense_48/MatMul f4 [32, 6]
0	0xbe8a795d	-0.27045718
1	0xbeb6c90b	-0.3570026
2	0x3e2d77a3	0.16940169
3	0xbe942f98	-0.2894256
4	0x3dd7cea1	0.10537458
5	0xbe472860	-0.19448996
6	0x3d658308	0.056033164
7	0x3dc4842a	0.09595521
8	0xbe28bc25	-0.16478021
9	0x3ea47fb0	0.32128668
10	0xbeb7bba8	-0.35885358
11	0x3e363cc9	0.17796625
12	0xbed7ccfe	-0.42148584
13	0xbe4cc54d	-0.1999714
14	0x3d998078	0.074952066
15	0x3eb2b7f3	0.34905967
16	0x3e77e786	0.24209413
17	0xbebab40f	-0.364655
18	0xbe7b0b31	-0.24515988
19	0x3e267f7d	0.1625957
20	0x3e155fc8	0.14587319
21	0xbe4e1eba	-0.20128909
22	0xbd8d78ac	-0.06907782
23	0xbee9e34c	-0.45681226
24	0xbe3c8695	-0.18410714
25	0x3ec2b9d1	0.38032392
26	0x3e37805e	0.17920062
27	0xbe79bbbb	-0.2438802
28	0xbec76e7d	-0.38951483
29	0xbd7aba1d	-0.061212648
30	0xbed1dbef	-0.4098811
31	0x3ebfed93	0.37485942
32	0x3eb3619c	0.35035408
33	0x3e9665c5	0.2937452
34	0x3e9a12dd	0.30092517
35	0x3e9d9588	0.30778146
36	0xbea8fdb7	-0.3300607
37	0xbe7619cc	-0.24033278
38	0x3ebd6036	0.36987466
39	0x3dd13aae	0.102162704
40	0x3c848429	0.0161763
41	0x3ea0b88a	0.31390792
42	0xbe834422	-0.2563792
43	0xbeb8d1c8	-0.3609755
44	0x3eb9fbd2	0.36324936
45	0xbe60e20c	-0.2196123
46	0x3e252bab	0.1612994
47	0xbe4842ed	-0.1955678
48	0x3eb90df8	0.3614347
49	0x3ed8320d	0.42225686
50	0x3e72adc1	0.23699094
51	0x3e98274f	0.2971749
52	0x3e5ee912	0.21768597
53	0xbea59ef4	-0.32347834
54	0xbeae21bb	-0.3401011
55	0xbeb5b1c3	-0.35487184
56	0xbe96d6c0	-0.29460716
57	0xbe21be1d	-0.15795179
58	0x3e0fd112	0.14044598
59	0xbd09fd46	-0.033688806
60	0xbed536b6	-0.41643304
61	0xbe94aa0a	-0.2903598
62	0xbe3fa676	-0.18715844
63	0x3e9a5695	0.30144182
64	0xbd96bd36	-0.07360308
65	0x3e9933c4	0.29922307
66	0x3e930841	0.28717235
67	0xbee8201a	-0.45336992
68	0x3e59c579	0.21266736
69	0xbe82e43b	-0.2556475
70	0x3ed2a549	0.41141728
71	0x3e3ba84e	0.18325922
72	0xbeb524cf	-0.35379645
73	0x3e3f3e25	0.1867605
74	0x3dd3513a	0.10318227
75	0xbe73dbe7	-0.23814355
76	0x3e213d45	0.15746029
77	0xbe60b9d7	-0.21945892
78	0x3e511469	0.20417942
79	0x3e8e0833	0.2774063
80	0xbead9396	-0.33901662
81	0xbd09e150	-0.03366214
82	0xbdf0e52b	-0.1176246
83	0x3e0d8f65	0.13824232
84	0x3db02efa	0.0860271
85	0xbe985f73	-0.29760322
86	0x3ea96bb5	0.33089986
87	0x3da92483	0.08258917
88	0x3e63e30c	0.2225458
89	0xbe15fdbf	-0.14647578
90	0x3d63ff58	0.055663437
91	0xbe659c90	-0.22423005
92	0xbe752ff5	-0.23944075
93	0xbeb07c5c	-0.3446988
94	0xbe241b98	-0.16026151
95	0x3ec30e0a	0.38096648
96	0xbe5e8bc1	-0.21733
97	0x3e396cc3	0.18107896
98	0xbe975049	-0.2955344
99	0x3ea68fce	0.3253159
100	0xbdb7777f	-0.08958339
101	0x3ecc7085	0.39929596
102	0xbec70336	-0.38869637
103	0x3d0a4d3b	0.03376506
104	0x3e494ee8	0.19659007
105	0x3eb2ff58	0.34960437
106	0x3e85218a	0.2600215
107	0xbcae3978	-0.021267638
108	0x3d9c657c	0.07636544
109	0xbea460ac	-0.32105005
110	0xbe9f3ede	-0.3110265
111	0xbe401968	-0.18759692
112	0x3e298d8a	0.16557899
113	0xbed715f0	-0.42008924
114	0x3e879b0c	0.2648548
115	0xbe9786c6	-0.2959501
116	0x3e64203c	0.22277921
117	0x3d7532d1	0.059862915
118	0xbdbd444b	-0.092415415
119	0xbe2ef756	-0.17086539
120	0xbe0d71d2	-0.1381295
121	0x3db72941	0.089434154
122	0xbecf26f2	-0.404594
123	0xbd923d12	-0.071405545
124	0xbda5516b	-0.0807217
125	0x3c47d22a	0.012196103
126	0x3ee8a453	0.4543787
127	0x3d6cedd6	0.057844006
128	0x3daacd88	0.08339983
129	0xbe01871d	-0.12649198
130	0x3ea0732e	0.31337875
131	0x3eecd01a	0.4625252
132	0x3decee5b	0.115689
133	0xbe35361f	-0.17696427
134	0x3e2a1105	0.16608055
135	0x3d1cfa9d	0.03832494
136	0x3edacc1c	0.42733848
137	0xbee83ed0	-0.45360422
138	0x3ea6d369	0.32583168
139	0xbe746c78	-0.23869503
140	0x3e440051	0.19140746
141	0x3e8b4603	0.27201852
142	0xbeed983a	-0.46405202
143	0xbe82b477	-0.2552831
144	0xbe5cfb6e	-0.21580288
145	0xbe85385a	-0.26019555
146	0x3ec0ffc5	0.37695137
147	0x3d0ce6b8	0.034399718
148	0x3ceceba4	0.028920956
149	0xbec0097a	-0.3750723
150	0x3eba1ee6	0.363517
151	0xbe1ec066	-0.15503082
152	0xbeae05c1	-0.33988765
153	0xbd082a65	-0.033243556
154	0xbd8e02f9	-0.06934161
155	0xbeec32c3	-0.46132478
156	0x3ec17bf9	0.37789896
157	0x3e554e5f	0.20830677
158	0x3e6e92a0	0.2329812
159	0xbe8e9e5b	-0.2785519
160	0xbdf735a9	-0.12070782
161	0xbebd5432	-0.36978298
162	0x3ca1814f	0.01971498
163	0x3e70bebf	0.23510264
164	0x3ec977b8	0.3934915
165	0xbe17fcc9	-0.14842524
166	0xbed21a09	-0.41035488
167	0xbedcf68b	-0.43156847
168	0x3d13daca	0.036097325
169	0xbeafbf64	-0.34325707
170	0x3dbaa35a	0.09113188
171	0x3c981294	0.018563546
172	0xbdc87e9a	-0.09789772
173	0xbeadab10	-0.33919573
174	0x3dd8234f	0.105536096
175	0xbdd25f07	-0.10272031
176	0xbec59190	-0.38587618
177	0xbec3a479	-0.3821142
178	0x3ed4b06b	0.41540846
179	0xbecab16a	-0.3958848
180	0xbda42f1f	-0.080168
181	0x3e34d4ed	0.1765935
182	0xbe429ad1	-0.1900437
183	0xbe14f424	-0.14546257
184	0xbeb07e1d	-0.34471217
185	0xbe176e94	-0.14788276
186	0x3e465892	0.19369724
187	0x3db7489a	0.089493945
188	0xbee2ad96	-0.4427306
189	0xbcd469ab	-0.025929293
190	0x3e436523	0.1908155
191	0xbe9e00b6	-0.30859917

sequential_12/dense_49/MatMul f4 [256, 32]
0	0xbe6515aa	-0.22371545
1	0xbdb0aa9d	-0.08626292
2	0x3d0cef2a	0.034407772
3	0xbe5c4bf7	-0.21513353
4	0xbdb86f24	-0.090055734
5	0x3db4102e	0.087921485
6	0xbda55159	-0.080721565
7	0xbde043b1	-0.10950411
8	0xbdb8bf88	-0.09020907
9	0xbdcd6e30	-0.10030782
10	0x3d9ac76c	0.07557568
11	0xbe760309	-0.24024595
12	0xbccb3b4f	-0.024808554
13	0x3d37c801	0.044868473
14	0xbdc048c5	-0.0938888
15	0xbdfac4a9	-0.12244541
16	0x3dd1d732	0.102461234
17	0xbc0d127f	-0.008610367
18	0x3ceaa2a2	0.028642002
19	0xbe03f328	-0.12885725
20	0x3cc1b772	0.023647044
21	0xbde13a43	-0.10997441
22	0xbe3cdaf2	-0.18442896
23	0xbd221537	-0.039571013
24	0x3c5b025f	0.0133672645
25	0xbe24a9e3	-0.16080432
26	0xbe0994aa	-0.13435617
27	0x3d99f713	0.07517829
28	0xbe15e1b0	-0.14636874
29	0x3e1cb423	0.15303092
30	0x3d101f03	0.035185825
31	0xbd801ef5	-0.062559046
32	0x3b561cef	0.0032671054
33	0x3de2c18b	0.11072072
34	0xbd49084b	-0.049080174
35	0xbd6aa717	-0.057288256
36	0xbc2a5523	-0.010396275
37	0x3ca907ac	0.020633541
38	0xbdf3dc93	-0.119073056
39	0x3d97a6bb	0.07404848
40	0xbde3855f	-0.11109423
41	0xbd11dc26	-0.03561034
42	0x3d40da4c	0.047083184
43	0xbce1f9e3	-0.027584976
44	0x3da5bf1e	0.08093093
45	0xbd34ba5a	-0.04412303
46	0x3d89e06d	0.06732259
47	0x3d6b5692	0.057455607
48	0x3e11bfb2	0.14233282
49	0xbd2711bb	-0.040788393
50	0x3dc3f220	0.09567666
51	0xbe08ba2e	-0.13352272
52	0xbcf12b67	-0.029439641
53	0xbd117c1e	-0.035518758
54	0x3dcb97b6	0.09941046
55	0xbcbec958	-0.023289368
56	0xbd3d3301	-0.04619122
57	0xbc7a4a12	-0.015276449
58	0x3dbe652e	0.09296642
59	0x3e1670d7	0.14691482
60	0xbdd424f8	-0.10358614
61	0xbdc2290f	-0.094804876
62	0x3df71d9a	0.12066193
63	0x3cd25e52	0.025679741
64	0x3dcffd08	0.10155684
65	0xbd9b16d2	-0.07572712
66	0xbdd377e8	-0.10325605
67	0x3d8b30da	0.06796427
68	0xbc891964	-0.01673574
69	0x3e18fc84	0.14940077
70	0x3dbbcd76	0.09170048
71	0xbc45d68f	-0.012075081
72	0x3dfa8b6f	0.12233626
73	0xbe0a630c	-0.13514346
74	0x3d990c77	0.074730806
75	0xbd411463	-0.047138583
76	0xbd531ed4	-0.051543072
77	0xbdc02104	-0.09381297
78	0x3d2fd09c	0.042923555
79	0x3dc58c02	0.09645845
80	0xbde021d1	-0.1094395
81	0xbdbcd8df	-0.092210524
82	0x3d294132	0.04132194
83	0xbd94fa87	-0.07274347
84	0x3d64dba5	0.05587353
85	0xbd80d02e	-0.06289707
86	0xbcb88bf5	-0.022527674
87	0xbe1e1c02	-0.15440372
88	0xbe2b7062	-0.1674209
89	0x3dc19532	0.09452285
90	0x3d89956e	0.067179546
91	0x3c9add13	0.018904245
92	0xbe59975f	-0.2124915
93	0x3d5dd14f	0.05415469
94	0x3de6f91e	0.11277984
95	0x3df35dfd	0.11883161
96	0xbdea051e	-0.11426757
97	0xbd9ded56	-0.07711284
98	0xbe234307	-0.15943538
99	0x3dfb376c	0.1226643
100	0xbd936825	-0.07197598
101	0x3d63eac6	0.05564382
102	0x3d19d13d	0.03755306
103	0x3d6d58a7	0.057945874
104	0x3e12e169	0.143438
105	0x3e05274a	0.13003269
106	0xbdd107b5	-0.10206548
107	0xbd8bc7d8	-0.068252265
108	0x3c649d88	0.013953574
109	0x3e1ff27e	0.15619847
110	0x3dcd655e	0.100291
111	0x3dbd0fbc	0.09231517
112	0xbce87b23	-0.028379029
113	0xbd4c8c55	-0.04993852
114	0xbda5d5bd	-0.08097408
115	0xbdde5fe2	-0.10858132
116	0x3da4f299	0.08054084
117	0x3dadad36	0.08480303
118	0xbdba9df6	-0.0911216
119	0x3dd2cbc2	0.1029277
120	0xbbfdec76	-0.0077491356
121	0xbe131017	-0.14361607
122	0xbe00e9ea	-0.12589231
123	0x3c87eafc	0.016591541
124	0xbd762fbc	-0.060104117
125	0x3d23b138	0.03996393
126	0x3cd93fa3	0.026519602
127	0xbe0c7a8b	-0.13718621
128	0xbc394973	-0.011309016
129	0xbe3b1deb	-0.18273132
130	0x3deb6c66	0.11495285
131	0x3dc5b48b	0.096535765
132	0x3d9a32a7	0.075291924
133	0x3dbd74cd	0.092507936
134	0xbb845516	-0.0040384633
135	0x3d97d290	0.074132085
136	0xbdc188b0	-0.09449899
137	0xbd270ab3	-0.040781688
138	0xbe107ed8	-0.14110887
139	0x3d3c1e5b	0.045927387
140	0x3d84d9c4	0.06486848
141	0x3dcd5e15	0.1002771
142	0xbc24e61c	-0.010064628
143	0xbdf02fab	-0.11727842
144	0xbe0d794b	-0.13815801
145	0xbd07dc3b	-0.033169013
146	0x3d324c75	0.043529946
147	0xbdea4160	-0.114382505
148	0x3c9b8432	0.018983934
149	0x3d0b6522	0.034031995
150	0x3db16536	0.086618826
151	0xbba22c9a	-0.0049491646
152	0x3cebe6fb	0.028796664
153	0x3c9da9ab	0.019245943
154	0x3d61f840	0.05516839
155	0x3cd71f8d	0.026260162
156	0xbdeffbc0	-0.117179394
157	0x3cb1b4f8	0.021692738
158	0xbd1e80b7	-0.03869697
159	0x3e23ec3a	0.16008082
160	0xbe347fa2	-0.17626813
161	0xbd4b0e1f	-0.049574014
162	0xbb151a36	-0.0022751219
163	0x3d8f739c	0.070044726
164	0xbe341d76	-0.17589363
165	0x3e0ac26d	0.1355073
166	0xbe382b76	-0.17985329
167	0xbde17bbb	-0.11009928
168	0x3df4b183	0.1194792
169	0x3d0f1094	0.03492792
170	0x3c9ca798	0.019122884
171	0x3ccbafb6	0.024864059
172	0xbdde29a4	-0.10847786
173	0x3d187b45	0.037226934
174	0xbd46328d	-0.048388053
175	0xbe164038	-0.14672935
176	0xbbbab87f	-0.005698263
177	0x3dcf0579	0.10108466
178	0xbe259caa	-0.16173044
179	0x3e339b54	0.17539722
180	0x3dd19eba	0.10235353
181	0x3cc5e1bc	0.02415549
182	0xbde38d84	-0.11110976
183	0xbddfda0f	-0.10930263
184	0xbe82bdeb	-0.2553552
185	0xbe2d610e	-0.16931555
186	0xbe0703c5	-0.13185032
187	0xbe31541a	-0.17317238
188	0xbdc58912	-0.09645285
189	0xbd34da89	-0.044153724
190	0xbda47115	-0.08029381
191	0x3bc63a38	0.0060494207
192	0x3d98c231	0.07458914
193	0x3dd9256c	0.10602841
194	0xbe082b3c	-0.13297743
195	0x3d7b1540	0.061299562
196	0xbd4011b8	-0.046891898
197	0xbdeb4cc6	-0.11489253
198	0xbd453d6a	-0.048154272
199	0xbe01403b	-0.12622158
200	0x3a1ccf4c	0.00059818174
201	0xbd71b191	-0.05900723
202	0xbc65cfe9	-0.01402662
203	0xbddcbcfc	-0.107782334
204	0xbda0a81e	-0.07844566
205	0xbc86c3e2	-0.016450826
206	0xbd752e39	-0.059858534
207	0xbe1f173b	-0.15536205
208	0xbdcf0b83	-0.101096176
209	0x3c894d96	0.016760629
210	0x3d0871df	0.03331172
211	0xbb72e0da	-0.0037060292
212	0x3d1ee14a	0.03878907
213	0xbdc7c7a8	-0.09754878
214	0xbcf4bcc5	-0.029875169
215	0xbd616e27	-0.05503669
216	0x3d2741e6	0.04083433
217	0x3dfded16	0.12398736
218	0xbd5f72ed	-0.05455296
219	0x3e0652dc	0.13117546
220	0x3d78d047	0.060745504
221	0xbe0d182a	-0.13778749
222	0xbd41c6ce	-0.047308736
223	0xbd6693c7	-0.056293275
224	0xbdd07606	-0.10178761
225	0x3e1fc7b5	0.15603526
226	0x3dc58887	0.09645181
227	0x3dbe0064	0.09277418
228	0xbdb81f3d	-0.08990333
229	0x3dcdd886	0.10051064
230	0x3c8ab6d7	0.016932888
231	0x3db18213	0.08667388
232	0x3d97e385	0.07416443
233	0x3da599d1	0.08085979
234	0xbc9aecd9	-0.018911766
235	0x3deb82bb	0.11499544
236	0xbbcbe8f1	-0.006222837
237	0x3da5e47c	0.081002206
238	0x3db03e41	0.08605624
239	0xbe213007	-0.15740977
240	0xbdab867a	-0.08375259
241	0x3d20f04e	0.039291672
242	0xbd75b52e	-0.05998724
243	0x3d0cd992	0.03438718
244	0xbd867987	-0.06566148
245	0x3c6503ce	0.013977958
246	0xbb4d3c80	-0.0031316578
247	0x3d1d8b5b	0.038462978
248	0x3c477abb	0.012175257
249	0xbd8fd4e9	-0.07023031
250	0xbe031166	-0.12799606
251	0x3d2799d4	0.040918186
252	0x3dd6f819	0.104965396
253	0x3db1b85c	0.08677742
254	0x3df1b6c8	0.11802441
255	0x3dda8d79	0.10671515

sequential_12/dense_50/MatMul f4 [64, 256]
0	0x3e0a945c	0.13533157
1	0x3c574767	0.013139582
2	0xbcbbe351	-0.022935541
3	0x3de115a6	0.10990457
4	0x3ca91e3b	0.020644298
5	0x3d399097	0.045303907
6	0xbdfc4162	-0.12317158
7	0x3dacdfa8	0.084410965
8	0x3db37130	0.08761823
9	0xbd2ea7e7	-0.042640593
10	0xbdf4fe1c	-0.1196253
11	0xbd3cc526	-0.046086453
12	0x3cc2402b	0.023712238
13	0xbd92fadb	-0.07176753
14	0x3d6b4c0e	0.05744558
15	0x3d58e28b	0.052950423
16	0x3d3f32a7	0.046679165
17	0x3db5b265	0.08871917
18	0xbdb2bf16	-0.08727853
19	0xbd961883	-0.07328894
20	0xbe0fb714	-0.14034683
21	0xbd09c35f	-0.033633586
22	0x3c23b148	0.009990998
23	0xbd17dc8c	-0.037075564
24	0x3d4c2f14	0.049849585
25	0xbdf77b67	-0.12084084
26	0xbe387798	-0.18014371
27	0x3d83508e	0.06411849
28	0xbd34afd7	-0.044113006
29	0x3c1e0564	0.00964484
30	0x3cfcfee5	0.030883262
31	0xbd8f82bb	-0.07007357
32	0x3dcc3d6e	0.09972654
33	0xbdf64a7c	-0.120259255
34	0xbd125f60	-0.035735488
35	0xbd3d4142	-0.046204813
36	0xbd449d62	-0.048001654
37	0xbe0532c4	-0.13007647
38	0x3d43dba1	0.047816876
39	0xbd0b4fba	-0.03401158
40	0x3e000aa4	0.12504059
41	0xbdf568fa	-0.11982913
42	0xbd888b3c	-0.06667182
43	0xbc163b77	-0.009169451
44	0xbcbf3a97	-0.023343368
45	0xbc91f968	-0.017819121
46	0x3b7e7ac5	0.00388305
47	0xbc22f96e	-0.009947164
48	0x3dc933ba	0.09824319
49	0x3dfb3ad2	0.122670785
50	0x3d860623	0.06544139
51	0xbd1646b5	-0.036688525
52	0x3dab6b8f	0.083701245
53	0x3e0ffe0f	0.1406176
54	0xbd97fbf2	-0.07421102
55	0xbc86f80f	-0.016475705
56	0x3d5bc0f3	0.053650808
57	0xbdb484b7	-0.08814376
58	0x3d3dd7cf	0.04634839
59	0x3deeba6c	0.11656651
60	0xbbc83917	-0.0061103213
61	0x3d9cdc26	0.076591775
62	0xbe23d19c	-0.15997928
63	0x3cc97d9e	0.024596032
64	0x3ca48edc	0.020087652
65	0x3d81efad	0.06344543
66	0x3b8cd5ad	0.004297933
67	0x3bc4888c	0.005997723
68	0x3d021f5f	0.0317682
69	0x3d2e217c	0.042512402
70	0xbd7cdfac	-0.061736748
71	0xbd4a8be1	-0.049449805
72	0xbdb40cc4	-0.08791497
73	0x3e119bc1	0.14219572
74	0x3d040047	0.032226827
75	0xbe0e706f	-0.13910078
76	0xbcef0fa8	-0.02918227
77	0x3d3b8819	0.04578409
78	0x3dcb01e7	0.09912472
79	0x3d221e69	0.039579783
80	0xbd33e600	-0.043920517
81	0x3e0ddc21	0.13853504
82	0xbd93d944	-0.072191745
83	0xbe029022	-0.12750295
84	0xbe5f15a6	-0.21785602
85	0xbbf7a535	-0.007557536
86	0x3e047285	0.1293431
87	0x3d60ebc4	0.054912344
88	0x3d05801f	0.03259289
89	0x3ccc04cd	0.024904633
90	0xbe109832	-0.14120558
91	0xbd54213e	-0.051789515
92	0x3d311d6e	0.043240957
93	0x3e339d8f	0.17540573
94	0xbb249fed	-0.0025119737
95	0x3dc0ffdf	0.094238035
96	0x3dd14c78	0.102196634
97	0x3dbe7503	0.09299662
98	0x3dcf1315	0.101110615
99	0xbbd03663	-0.0063541397
100	0xbd0b2136	-0.03396722
101	0x3c6d152b	0.014470379
102	0x3d5c31fd	0.05375861
103	0xbd04342f	-0.03227633
104	0x3d921c25	0.071342744
105	0x3ca200cb	0.019775769
106	0xbdf3b7d7	-0.11900299
107	0xbd0725d6	-0.032995068
108	0xbdfd760d	-0.12376032
109	0xbd59d16c	-0.053178236
110	0x3cac2226	0.021012377
111	0xbd8dfa09	-0.06932456
112	0xbd518c8f	-0.051159438
113	0x3d47ee35	0.048811156
114	0x3dbfb529	0.093607254
115	0x3dfdc5d5	0.12391249
116	0xbda94f91	-0.08267129
117	0x3e00c666	0.12575683
118	0xbd6fd79e	-0.058555238
119	0x3e1abb9b	0.15110628
120	0xbd4fbbb2	-0.05071611
121	0x3dec4b1b	0.11537763
122	0xbde6fff6	-0.112792894
123	0xbe373890	-0.1789267
124	0x3ce127a2	0.027484719
125	0x3dfe1217	0.12405794
126	0x3c8b4980	0.017002821
127	0x3de016bd	0.10941837
128	0x3b10ade6	0.0022076308
129	0x3da911f0	0.082553744
130	0x3cbf3d79	0.023344742
131	0xbcf3aa9a	-0.029744435
132	0xbb9a3d34	-0.004707003
133	0xbd2af0bd	-0.041733492
134	0xbd9cb757	-0.07652157
135	0xbda5e4ff	-0.08100318
136	0xbd3a52e4	-0.045489207
137	0x3d88f355	0.06687037
138	0x3e1743a8	0.14771903
139	0x3df3d86e	0.11906515
140	0xbdbcb05e	-0.09213327
141	0xbdb28f8e	-0.08718787
142	0x3df62a09	0.12019736
143	0xbe64f92e	-0.2236068
144	0x3de6bb29	0.11266167
145	0x3c485526	0.012227332
146	0x3cfc497d	0.03079676
147	0x3e3b27bf	0.1827688
148	0x3d07e303	0.03317548
149	0xbd9d5162	-0.07681538
150	0xbdd17897	-0.10228079
151	0xbdb14e7b	-0.08657547
152	0xbcaa0d03	-0.020758158
153	0xbd5e33c3	-0.054248583
154	0xbda81cbe	-0.08208607
155	0xbd70e27f	-0.058809754
156	0x3de1da8e	0.11028014
157	0x3cf4c125	0.029877255
158	0x3dabb8b2	0.08384837
159	0xbe1ba86d	-0.15200968
160	0xbd5fad2e	-0.054608516
161	0x3db9a507	0.090646796
162	0xbc2881b6	-0.010284832
163	0xbdc827ba	-0.09773202
164	0x3d9af596	0.07566373
165	0xbd875858	-0.06608647
166	0x3e1e82ef	0.15479635
167	0xbe03aba1	-0.1285844
168	0x3db9f18f	0.09079277
169	0xbc2dd370	-0.010609493
170	0x3dea78fd	0.11448858
171	0x3d909755	0.07060114
172	0xbe1c5698	-0.15267408
173	0x3de73cc7	0.11290889
174	0x3dbae346	0.0912538
175	0x3d18a8b8	0.037270278
176	0xbdb5cdfd	-0.0887718
177	0x3d20745e	0.039173476
178	0xbe2f862f	-0.1714103
179	0x3e3273ed	0.17427035
180	0x3dce5974	0.100756556
181	0xbd6e355e	-0.058156364
182	0x3d82d05b	0.06387397
183	0xbdb3449a	-0.08753319
184	0x3dfb4336	0.12268679
185	0xbd82a62e	-0.063793525
186	0xbd4caf2a	-0.049971737
187	0xbd3936c6	-0.04521825
188	0xbd7ca826	-0.061683796
189	0xbd518a22	-0.051157124
190	0x3e1b6910	0.15176797
191	0xbd0c90a9	-0.034317646
192	0x3dffab80	0.12483883
193	0xbcdb1e2c	-0.026747786
194	0xbcd2449a	-0.025667477
195	0xbdead8bf	-0.11467122
196	0xbd02bd65	-0.031918902
197	0x3cf7ee94	0.03026513
198	0xb9e1575f	-0.0004298044
199	0xbd831704	-0.06400874
200	0x3cdbf011	0.026847871
201	0xbdaa48f8	-0.08314699
202	0xbd032d5d	-0.032025684
203	0xbe0eaf24	-0.13933998
204	0x3d05ea8d	0.03269439
205	0xbd9401ec	-0.07226929
206	0x3daaa8db	0.08332988
207	0xbdd67d65	-0.10473136
208	0xbcf69fdc	-0.030105524
209	0x3cd7fa4e	0.026364472
210	0x3cd7331d	0.02626949
211	0x3b8631e8	0.0040953048
212	0x3d9e636d	0.07733808
213	0xbde6394a	-0.11241396
214	0x3d889883	0.06669714
215	0x3d7985e0	0.06091869
216	0x3ccd214f	0.025040297
217	0x3db3f527	0.087869935
218	0xbdba89b3	-0.09108295
219	0xbd9d1bc0	-0.076713085
220	0xbe05fd0e	-0.13084814
221	0x3e1608c1	0.14651777
222	0x3da179a5	0.0788453
223	0x3d143b37	0.036189284
224	0xbd06ab28	-0.03287807
225	0xbdc23035	-0.09481851
226	0xbdd59d75	-0.10430423
227	0xbd9341f2	-0.071903124
228	0xbd82af1b	-0.06381055
229	0x3d8e192e	0.069383964
230	0xbca00efa	-0.019538391
231	0xbe0cd2fe	-0.13752362
232	0xbdd99e69	-0.106259175
233	0xbd2f3e5d	-0.042784084
234	0xbda4e92f	-0.08052289
235	0x3de79358	0.113074005
236	0xbd6d8756	-0.057990395
237	0xbd8595d9	-0.06522722
238	0xbbfb331a	-0.007666004
239	0xbdb2ad95	-0.087245144
240	0xbda68133	-0.081301115
241	0x3c8f65dc	0.017504625
242	0x3dcfd22b	0.10147508
243	0x3e08279c	0.1329636
244	0xbda56cf3	-0.08077421
245	0x3d5eea03	0.05442239
246	0xbd912d33	-0.07088699
247	0xbdaa7044	-0.08322194
248	0x3d364d25	0.044507165
249	0x3d89fa33	0.06737175
250	0x3df77105	0.12082104
251	0x3d2465ab	0.04013602
252	0xbc551896	-0.01300635
253	0x3db7d174	0.08975497
254	0xbd3349e6	-0.043771647
255	0x3d260df3	0.040540647

sequential_12/dense_51/MatMul f4 [1, 64]
0	0x3ecc7a20	0.39936924
1	0x3e0faae6	0.14030036
2	0x3e435313	0.19074659
3	0x3ebfc7bd	0.37457076
4	0x3e3c4a56	0.18387732
5	0x3ec90303	0.3926011
6	0x3d454b7c	0.04816769
7	0x3eacda73	0.33760414
8	0x3eb0662d	0.34452954
9	0xbe3d572a	-0.18490282
10	0xbe8fa0e0	-0.28052425
11	0xbdcae946	-0.099077746
12	0x3dc5f31a	0.096655086
13	0x3e76bcdf	0.24095486
14	0x3e9e2d8a	0.3089412
15	0x3ec5e482	0.386509
16	0xbe3102d7	-0.1728624
17	0x3ea72073	0.32641944
18	0x3e36d5d8	0.17855012
19	0xbe548045	-0.20752056
20	0xbe7c2381	-0.24622919
21	0xbe859c57	-0.2609584
22	0x3e3adaa3	0.18247466
23	0xbe56e992	-0.20987538
24	0xbef720b6	-0.48267144
25	0x3e80f0d1	0.25183728
26	0xbe49c5c9	-0.19704355
27	0xbcc5e084	-0.024154909
28	0xbe94a891	-0.29034856
29	0x3ebee134	0.3728119
30	0xbdd8c595	-0.10584561
31	0x3e89a708	0.26885247
32	0xbe8ef724	-0.27922928
33	0xbe7c1d94	-0.24620658
34	0x3ebc6bea	0.36801082
35	0xbe35b6c0	-0.17745495
36	0x3ec7be31	0.39012292
37	0x3ec4af93	0.38415202
38	0xbe3403b6	-0.1757954
39	0x3eb6d6c5	0.3571073
40	0xbe2dc3cd	-0.16969223
41	0x3e28e999	0.1649536
42	0xbead7a3a	-0.33882314
43	0x3d87713d	0.06613395
44	0xbe2c556f	-0.16829465
45	0xbe272b41	-0.16325094
46	0x3e743ba9	0.23850884
47	0xbe99d5cf	-0.30045936
48	0xbe47365c	-0.1945433
49	0xbe19a2a6	-0.15003452
50	0xbe0ca78f	-0.13735794
51	0xbd9e5d81	-0.07732678
52	0xbe6e3d12	-0.23265484
53	0xbe07f09d	-0.1327538
54	0x3e680961	0.22659828
55	0xbdbbc0f8	-0.09167665
56	0xbeac8d5a	-0.33701593
57	0x3dcb0120	0.09912324
58	0x3ea9ed47	0.3318884
59	0xbe53839e	-0.20655677
60	0xbea60458	-0.3242519
61	0xbe53ae6f	-0.2067201
62	0xbe0333d2	-0.12812737
63	0x3de38c21	0.11110712
