app/src/main/ml/potability-iot.tflite (tflite, 629145 bytes, 7 tensors)

sequential_6/dense_26/BiasAdd/ReadVariableOp f4 [64]
000000 46 9d fe bf bf cf 38 be 3a 3c 04 c0 a2 dd 08 bf
       -1.9891746 -0.18047999 -2.066176 -0.53463185
000010 fd da eb be 72 46 fb be a2 91 10 bf 7b 60 fa be
       -0.46065512 -0.49077183 -0.5647222 -0.48901734
000020 6e 2f cb bf 4f 32 10 bf 8b 07 58 bf 00 bd 83 bf
       -1.5873849 -0.56326765 -0.8438651 -1.0292053
000030 db 1f cf be 37 98 8e bf 6e 31 54 bf 5e e7 c0 be
       -0.4045399 -1.1140202 -0.82887924 -0.3767652
000040 6d 2b 91 be 94 53 e6 bf 9c fb 57 bf f5 c6 51 bf
       -0.28353444 -1.7994256 -0.843683 -0.8194421
000050 19 b4 88 be 66 35 85 be fb ec c3 be 11 75 09 bf
       -0.26699904 -0.26017302 -0.3826674 -0.53694254
000060 62 92 10 bf 15 47 cb be aa 03 87 be 9e 29 19 be
       -0.5647336 -0.3970267 -0.26369983 -0.14957282
000070 a8 25 3e bf 38 77 3d bf 05 e7 ad bf 40 d9 af be
       -0.7427621 -0.7401004 -1.3586127 -0.34345436
000080 92 ff c9 be 23 33 60 bf 38 19 09 bf a6 5f ac be
       -0.39452797 -0.8757803 -0.53554106 -0.33666724
000090 10 2f da bf df 35 3c be 1a a4 67 bf 65 b8 5c c0
       -1.7045612 -0.18379925 -0.90484774 -3.4487545
0000a0 c4 c1 cf bf 47 0e 90 3d 0c 9f fd bf 19 bb 0f c0
       -1.6231008 0.07033973 -1.9814162 -2.2457945
0000b0 0b f7 94 be ec f2 0c bf 20 fd eb be cc af be be
       -0.2909473 -0.5505817 -0.46091557 -0.37243497
0000c0 cf 4e 0a bf 88 9a f6 be b4 42 0f bf bf 97 c5 bf
       -0.540265 -0.48164773 -0.55961156 -1.5436934
0000d0 af 64 04 bf bc ff e1 be 0b 13 09 bf a9 1a 35 c0
       -0.5171613 -0.44140422 -0.5354468 -2.8297522
0000e0 a1 2d 98 be fe 8e 3a bf 50 ce 1c bf 25 5e 97 be
       -0.29722312 -0.7287444 -0.6125231 -0.29564014
0000f0 a4 24 99 be ec bb 6f bf 68 98 55 c0 13 16 08 bf
       -0.29910767 -0.9364612 -3.3374271 -0.5315868

sequential_6/dense_25/BiasAdd/ReadVariableOp f4 [256]
000000 8d e5 12 bf de 88 44 be 76 0d e9 c0 73 53 de be
       -0.57381517 -0.19192836 -7.282893 -0.43423042
000010 7a 44 d3 bd d0 73 d9 c0 b3 c2 10 c0 10 96 c7 be
       -0.10315795 -6.7953873 -2.2618835 -0.38981676
000020 56 d3 61 bf c5 18 8c c0 b3 8b 7f be 45 02 20 bf
       -0.882131 -4.3780236 -0.24955635 -0.62503463
000030 b2 f8 13 c0 da ec 9b be 21 a4 0d be bd 6b 1f bf
       -2.3120542 -0.3045414 -0.13832141 -0.6227377
000040 be a5 9a c0 34 6c c7 bd 34 49 a3 bd 81 82 03 bf
       -4.832732 -0.09737435 -0.07972947 -0.5137101
000050 c7 2f b6 be 15 a4 83 be 2b 00 99 be f9 0c 0b bf
       -0.35583326 -0.25711122 -0.2988294 -0.5431667
000060 11 c5 40 bf 90 93 16 be e5 06 40 bf 0f 9b 1b c0
       -0.753007 -0.14704728 -0.7501052 -2.431339
000070 3d 58 ce be 2b b8 00 c1 66 b8 f1 be 7b ee c3 be
       -0.40301695 -8.044963 -0.47210997 -0.38267884
000080 6b b7 89 be 34 b2 ab be 5e 46 ab bf 2c 34 cb be
       -0.2689775 -0.33534396 -1.3380849 -0.3968824
000090 d0 69 66 be 99 2f e3 be 9e 27 e1 be 22 36 50 be
       -0.22501302 -0.44372252 -0.43975538 -0.2033315
0000a0 51 0a 9a 3f 04 93 8c be 37 1c 62 bf ed 02 a5 be
       1.2034398 -0.27455914 -0.883243 -0.32228795
0000b0 ab f9 22 be 23 c3 7c be a3 64 91 bf 1e df 99 be
       -0.15915553 -0.24683814 -1.1358837 -0.30053037
0000c0 f9 a6 02 bf 29 be 89 be 73 ab ac be 4a 3e 9e be
       -0.5103603 -0.26902893 -0.33724555 -0.30906898
0000d0 75 af 2d be 33 cf 20 be 43 93 9c bd e9 52 91 bf
       -0.16961463 -0.1570404 -0.076452754 -1.1353427
0000e0 3b ed 26 be 9c 9c f0 be 1f 1c 93 be 2b e6 d2 c0
       -0.16301434 -0.46994483 -0.28732392 -6.5905967
0000f0 40 c4 be be f9 82 22 bf 0e f1 b4 be 3e 8a fd be
       -0.37259102 -0.634811 -0.3534016 -0.49519533
000100 7d 79 9c be b6 3c c9 be 30 df c1 bf 4e b7 7c be
       -0.30561438 -0.3930413 -1.5146236 -0.246793
000110 f4 d9 77 3f b5 8b ce be 34 f7 5b be f3 da 85 c0
       0.96816945 -0.40340963 -0.2148102 -4.182977
000120 9d 20 77 be 88 86 a4 be a3 6e 03 c0 c0 e6 94 be
       -0.24133535 -0.3213389 -2.0536277 -0.29082298
000130 1a 41 a2 be 2f 1e 9d be ca 15 0e be 4b 41 f9 be
       -0.31690294 -0.3068709 -0.138755 -0.48682627
000140 18 ef 36 c0 13 da 02 41 35 fa 70 be 82 b3 08 bf
       -2.8583431 8.178241 -0.23532946 -0.5339891
000150 61 c0 06 be c2 37 cf bf 01 73 28 be 8e 22 e0 be
       -0.13159324 -1.6188891 -0.1645012 -0.43776363
000160 7b c4 21 be 38 18 a3 be 6d 21 90 c0 7b 14 ae bf
       -0.15797608 -0.31854415 -4.5040803 -1.36
000170 db da 08 bf 01 f8 ab be 91 91 f5 be 4b 30 42 c0
       -0.53458947 -0.3358765 -0.4796262 -3.0341976
000180 52 b2 54 be bc e1 27 be ec b7 a8 be 7a a9 8a be
       -0.20771149 -0.16394705 -0.3295282 -0.27082425
000190 1e c3 b2 bf 4e 66 d7 bd c1 11 9d be 5c ae af be
       -1.3965795 -0.1051756 -0.30677608 -0.34312713
0001a0 7c be 14 bf 81 e2 de be c6 7b df be ac 9d a3 bf
       -0.58103156 -0.43532184 -0.4364912 -1.2782493
0001b0 21 07 87 be 3d bd e2 bf 70 82 c9 be 22 67 9e be
       -0.26372626 -1.7714001 -0.39357328 -0.3093806
0001c0 b4 dc 44 bf 1b f9 cd bd 5d d9 ef be 0a f8 9a be
       -0.76899266 -0.10057279 -0.46845523 -0.30267364
0001d0 09 73 21 be 53 91 fc be be 12 ba be 22 06 04 bf
       -0.15766539 -0.49329624 -0.36342424 -0.5157186
0001e0 3a bd 63 be 97 14 1b be 32 24 6e be dd 6b b0 bf
       -0.22240153 -0.15144573 -0.23255995 -1.3782917
0001f0 9a bf 67 bf c0 89 5a be a9 05 a3 be 3d eb f9 be
       -0.90526736 -0.2134161 -0.31840256 -0.48812285
000200 36 04 b7 c0 20 7f 85 be 9d a9 dd be a0 29 3a bf
       -5.719264 -0.2607355 -0.43293467 -0.72719765
000210 2f 42 06 c0 2c f6 0d be 40 c5 b9 c0 1f 04 62 bf
       -2.0977895 -0.13863438 -5.8053284 -0.8828754
000220 f9 ed 9d be 3c f0 a7 be 0d f1 04 be 49 ac 7b be
       -0.3084562 -0.32800472 -0.12982579 -0.2457744
000230 7b 4f 3f be 2a 43 cc be 8d 4f 3e be 98 dd fd be
       -0.18682663 -0.39894992 -0.18585034 -0.49583125
000240 3a 7e eb be 54 9e 15 bf 32 ec 96 be a0 65 c2 be
       -0.4599474 -0.58444715 -0.29477078 -0.3796816
000250 61 ee d6 be 94 cd e4 be e3 21 36 bf c6 da 89 be
       -0.41978744 -0.44688094 -0.7114546 -0.26924723
000260 36 b9 27 bf 87 a5 5a be 47 73 17 be 36 15 71 c0
       -0.65516984 -0.21352206 -0.14790069 -3.7669196
000270 37 2a af be 98 2f f3 be aa e5 86 be c1 ad ee bd
       -0.34211895 -0.4749725 -0.26347095 -0.11654235
000280 09 bc d1 bd b6 f1 ba be d2 21 f7 be 7d e8 93 be
       -0.10240943 -0.36512536 -0.4826799 -0.28888312
000290 db 83 d5 bf 2d ab 3c c0 e5 62 d7 be 28 47 10 bf
       -1.6680864 -2.9479477 -0.42067638 -0.56358576
0002a0 03 0a df be d4 53 ad be 57 a1 99 be 23 d3 6a be
       -0.43562326 -0.33853018 -0.30005905 -0.22932105
0002b0 93 95 09 be 0c eb 04 bf 30 6c 08 be bf 52 1e be
       -0.13435964 -0.51921153 -0.1332252 -0.15461253
0002c0 8c 93 91 be d0 bf 57 bf 7b 94 ad c0 50 a0 01 c0
       -0.28432882 -0.8427706 -5.424375 -2.0254097
0002d0 3d 3d 98 c0 07 57 3c be 4e 6c 78 be a8 fb 8e bf
       -4.7574754 -0.18392573 -0.24260065 -1.1170549
0002e0 8c 65 bd be 8d 02 b7 be f3 bb a4 be f9 20 dd be
       -0.36991537 -0.35744134 -0.32174644 -0.4318922
0002f0 01 9e 90 bf 6b 2a 85 be 39 92 dd be 23 88 95 bf
       -1.1298219 -0.26008925 -0.43275622 -1.1682171
000300 4c 8b 22 be ae e5 b3 be 85 85 e5 bf e5 3c 5a be
       -0.1587345 -0.3513617 -1.7931372 -0.21312292
000310 14 4f 6c be 66 9e d8 bd 09 55 fb be 42 7b 18 be
       -0.23077041 -0.10577087 -0.49088314 -0.14890769
000320 4d 12 9e be c5 87 53 bf 2a 8a 8d bf e1 f7 67 be
       -0.30873337 -0.8262904 -1.1057789 -0.22653152
000330 68 c7 02 bf 18 b6 94 bd 38 76 ae be e4 66 00 bf
       -0.5108552 -0.07261294 -0.3407457 -0.50157
000340 c9 f3 84 c0 cd 0c dc c0 77 18 15 be 64 22 75 be
       -4.154759 -6.8765626 -0.14560114 -0.239389
000350 f6 93 8a c0 4b 17 a7 bf 4f 2c 95 be de c8 e7 bf
       -4.3305616 -1.3053983 -0.29135367 -1.8108175
000360 c1 57 2c bf e3 d7 89 be 2a 66 39 be 4c 37 ae be
       -0.673214 -0.2692252 -0.18105379 -0.34026563
000370 8c 3e 5e be 96 ad 20 be bf 9f 59 be f7 ad 2a be
       -0.21703547 -0.15691218 -0.21252345 -0.16667925
000380 3a bb 31 be e4 da 7d be 08 2f a9 be 31 d1 95 c0
       -0.17356578 -0.24790531 -0.33043694 -4.681786
000390 29 92 d5 be df 2e 1f be 0a d6 7e be b1 c4 dd bf
       -0.41713074 -0.15545224 -0.24886337 -1.732565
0003a0 fb b7 2a be b8 41 9a be c2 a1 28 bf 22 a1 99 be
       -0.16671745 -0.30128264 -0.6587182 -0.30005747
0003b0 59 7e b2 bf 79 0a 8b be c0 26 a3 be 00 c1 9d c0
       -1.3944808 -0.27156428 -0.318655 -4.9298096
0003c0 1e 36 96 be db 2a 79 be 9d 9e 96 be 79 53 d0 bd
       -0.29338163 -0.24332754 -0.29417887 -0.10172171
0003d0 eb 58 43 be 36 fe 8d be 12 98 33 bf 6b 4c d1 be
       -0.19076888 -0.2773301 -0.70153916 -0.40878615
0003e0 14 14 c7 be e1 e2 53 be 95 6c 05 bf 2d 47 19 be
       -0.38882506 -0.20692016 -0.5211881 -0.14968558
0003f0 d8 ea 76 bf 11 52 a6 c0 ef b8 95 be cf e9 f3 be
       -0.96452093 -5.197518 -0.29242656 -0.4763932

sequential_6/dense_24/BiasAdd/ReadVariableOp f4 [32]
000000 38 23 5b c0 2b a5 fd bf 6b 80 6e bf 21 f7 0d c0
       -3.4240246 -1.981603 -0.931647 -2.2182086
000010 ac 91 fe bf 8c 42 d0 bf 5f 2e 63 c0 5e 8e bc 3f
       -1.9888206 -1.6270308 -3.5497053 1.4730947
000020 2d fe 65 c0 e8 3b 56 c0 33 9b 3a c0 bb 1e 85 c0
       -3.5936387 -3.3474064 -2.9157226 -4.1600013
000030 c5 bf e4 be 45 51 23 bf 54 d9 26 bf 60 e4 62 c0
       -0.4467756 -0.6379588 -0.65175366 -3.545189
000040 6c c0 47 bf 65 25 62 c0 10 cb 77 c0 c2 02 4e c0
       -0.7802799 -3.5335324 -3.871769 -3.2189183
000050 55 4a ac bf a4 24 23 bf 19 51 89 c0 6e 5f 89 c0
       -1.3460184 -0.63727784 -4.2911496 -4.292899
000060 ca c5 2f c0 fb 03 89 bf 3a 3f 86 c0 fc 4d 4a c0
       -2.746447 -1.070434 -4.195218 -3.1610098
000070 7d 6a 16 c0 d6 80 54 c0 90 e7 12 bf 5e 51 73 c0
       -2.3502495 -3.3203635 -0.57384586 -3.8018413

sequential_6/dense_24/MatMul f4 [32, 6]
000000 f3 14 11 c0 b1 b0 80 3f 35 f7 c8 bf bf ae f1 be
       -2.2669036 1.0053922 -1.5700442 -0.47203633
000010 39 8f bd bf 5c 7c e2 3f 58 c2 d5 be 20 2b 12 be
       -1.4809333 1.7694201 -0.41749835 -0.14274263
000020 53 8b 0c bf 32 d4 3a c0 f3 63 14 c0 1f a5 ec bf
       -0.5490009 -2.9192014 -2.3186004 -1.8487891
000030 de d5 ca be bc ed 32 3c b3 c8 06 bf 1f 18 85 bf
       -0.39616293 0.010920938 -0.5264999 -1.0397986
000040 e1 94 34 40 0b 43 f0 be e1 ef 98 be 4a b6 1a 3e
       2.8215868 -0.4692615 -0.29870513 0.151086
000050 f4 dc ae 3f 0f f4 fc bf e5 58 ae be 45 00 f6 3f
       1.366118 -1.9761981 -0.34052196 1.9218832
000060 28 26 ad 3d 1b e7 c9 3e a2 54 ac be 91 37 5b bc
       0.08454543 0.39434132 -0.3365832 -0.013379947
000070 19 ae 1a be e5 a4 28 be a3 15 82 be 3a bb e5 3c
       -0.15105475 -0.16469152 -0.25407133 0.028043378
000080 b0 72 89 3b 99 96 42 3c 73 23 a7 3e 5d 78 85 bd
       0.00419458 0.011876726 0.32644233 -0.06517098
000090 87 a8 09 40 0d c7 e6 bf a0 24 4c bf 1d d4 0a be
       2.150911 -1.8029495 -0.79743385 -0.13557477
0000a0 6b da 83 3f f0 21 c7 3c 7a 97 af 3e 98 19 eb be
       1.0301031 0.024308175 0.34295255 -0.45917964
0000b0 af d4 2b 40 bd c5 d2 bf bf c2 86 bf 94 f3 2b 40
       2.6848562 -1.6466595 -1.0528182 2.6867418
0000c0 d3 6e c5 be 41 ac af 3f c1 45 f5 3d c7 2c 01 40
       -0.38561115 1.3724443 0.11976195 2.018358
0000d0 ea f6 c2 bf 85 9b 2d c0 8a b8 05 3f 70 b5 19 40
       -1.5231602 -2.7126172 0.5223471 2.401699
0000e0 5e 02 22 bd 86 51 ad 3f 98 94 2b 3f 53 22 c5 3f
       -0.03955304 1.3540504 0.6702361 1.54011
0000f0 e1 23 7d 3f 50 d7 15 40 20 eb b7 bf de 31 8e 3e
       0.9888287 2.3412666 -1.436863 0.2777242
000100 13 08 69 3f ef e2 31 be 75 34 f6 bf e5 49 80 3f
       0.91027945 -0.17371725 -1.9234759 1.0022551
000110 4c 38 02 40 f4 c9 41 be bb dc ff 3f d2 ba b2 bd
       2.034686 -0.18924695 1.9989237 -0.087270394
000120 ab 25 96 bb 52 a7 81 3c 24 8b 73 3d f7 7d 1b 3d
       -0.004582127 0.015826855 0.059458867 0.037961926
000130 4c f3 b6 3c 4b f3 c1 3b b0 fd 52 bc 59 0a 0e 3d
       0.02233281 0.0059188954 -0.012877867 0.034677837
000140 4c f1 dd 3c ab fd 98 bd 6c ef 63 3c 4f 73 9e 3d
       0.027092598 -0.07470258 0.013912063 0.07736837
000150 cb 8c 8b be 6a e4 fd be d7 f1 96 bf 8c 8c 45 bf
       -0.27255854 -0.4958833 -1.1792554 -0.7716758
000160 8b eb bb 3f 93 b3 b7 3f b4 6f f3 3e 2a 57 bb bf
       1.4681257 1.4351677 0.4754616 -1.4635975
000170 e3 32 97 3f b5 19 f4 3e 68 3f 15 bf af e3 e5 bf
       1.1812404 0.47675863 -0.58299875 -1.7960109
000180 d3 8e 0a be 1a a6 aa bc d8 c2 8e 3a e7 a4 ee bd
       -0.13531046 -0.020831157 0.0010891808 -0.116525464
000190 9c bd 47 bd 63 d0 ae 3d 1a 52 d4 bf b0 6d 45 3f
       -0.04876481 0.0853584 -1.6587555 0.77120495
0001a0 24 3b 48 bf 1e 1b b7 3e bd 5f 1c bf 4e 61 b2 3f
       -0.7821524 0.35762876 -0.61083585 1.3935945
0001b0 4f c6 c2 3f cb 81 92 bf 17 ba 08 c0 f9 f0 df bf
       1.5216769 -1.144586 -2.136358 -1.7495414
0001c0 62 d3 02 bf 6b e5 53 bf 63 84 bd 3e 47 24 97 be
       -0.51103795 -0.8277194 0.37015066 -0.29519865
0001d0 65 dd 80 bf 00 24 cd 3f 85 e5 dd bf a3 86 60 3f
       -1.0067564 1.6026611 -1.7335669 0.8770544
0001e0 cf ef 07 be 32 f7 56 bd 6e 04 87 3e c6 ce 45 be
       -0.13275073 -0.052481838 0.26370567 -0.19317159
0001f0 be e8 1b be f0 15 0e 3e bb 7f 5c bd 79 1f 0e 3d
       -0.15225503 0.13875556 -0.05383275 0.034697983
000200 46 c1 c1 bb 75 6b d3 3b 6c fa a5 3c 4f 69 a8 3c
       -0.0059129326 0.006452019 0.020261012 0.020558028
000210 ac fe a4 bd 38 55 46 3e c3 a2 b6 3f 30 43 93 3f
       -0.08056387 0.19368446 1.4268421 1.1504879
000220 36 e9 16 3f 45 f1 8c bf 7f 80 be bf 62 f4 98 be
       0.589496 -1.101113 -1.4882964 -0.2987395
000230 bc af e6 3f 68 5a 8e 3f 14 89 19 bf 0d d4 0b bf
       1.802238 1.112134 -0.5997479 -0.5462044
000240 5c 61 80 3e fd d9 27 bf 45 dc 92 be 2c 02 9c 3f
       0.2507428 -0.65567 -0.28683677 1.2188163
000250 f4 8d da 3f 30 c5 01 40 69 07 87 bd b2 eb 27 3d
       1.7074571 2.0276604 -0.0659321 0.04099626
000260 ff 64 a5 bd 6f d9 30 3e 68 b9 3f 3d e3 e0 0e 3d
       -0.08075904 0.17270444 0.046807677 0.034882437
000270 75 69 03 c0 0c 61 f2 bf 96 4a 9d be 44 3e 13 bf
       -2.0533116 -1.8935866 -0.30720967 -0.57516885
000280 21 af ca 3f 42 94 64 bf 4c 4e ae 3f f0 50 04 40
       1.5834695 -0.89288723 1.3617644 2.06744
000290 ca dd aa 3e be e1 8c bf 2f 6f 28 3f 31 44 66 3e
       0.33372337 -1.1006391 0.6579465 0.2248695
0002a0 d9 4e 77 be 49 fa 21 3f ec db 3d c0 0a c2 a3 3e
       -0.24151172 0.6327253 -2.966548 0.31983978
0002b0 5e e2 09 3f 6c ce c9 bf 09 b2 92 3f 8e 9e d1 3f
       0.53861034 -1.576612 1.1460582 1.6376512
0002c0 fa 4c 92 bf 14 16 46 3f 23 16 2f c0 ae 8c 95 3f
       -1.1429741 0.7737744 -2.735726 1.1683557
0002d0 57 e8 ed bd db b0 f9 3c 1d ec 38 3c 26 dc 57 3d
       -0.11616581 0.03047984 0.011286763 0.052700184
0002e0 0a b3 8c bc a6 66 11 be 77 17 92 bd db 0b 83 3f
       -0.017175216 -0.14199314 -0.07133382 1.0237993
0002f0 a2 42 db 3f 82 88 79 3f 37 cc fb bf 4b 2c 9c 3f
       1.712971 0.9747392 -1.9671696 1.2201017

sequential_6/dense_25/MatMul f4 [256, 32]
000000 17 89 09 bf e1 44 c7 be e2 ac 1c bf 77 fa bf 3c
       -0.5372481 -0.38919738 -0.612013 0.02343486
000010 ad 1c 91 be 66 03 14 bd 4c 98 8f be c2 31 35 bf
       -0.2834219 -0.036136054 -0.2804588 -0.7077905
000020 c6 c9 c8 be cf 62 83 3c 43 5c 1f bf 71 94 54 be
       -0.3921644 0.016038327 -0.62250155 -0.20759751
000030 bf 12 9a be e6 2c 75 be 91 1d d1 be 40 55 f0 bd
       -0.30092427 -0.23942909 -0.4084287 -0.1173501
000040 6f 2c 27 be c6 09 0f be 61 70 45 bf 8a 4a 82 bf
       -0.16325544 -0.13968572 -0.771246 -1.0178998
000050 2c ce 9a 3d aa 2d 9d bb b4 7c 2c bf 9a 66 1c 3d
       0.075588554 -0.0047967033 -0.6737778 0.038183786
000060 25 25 0e bf 33 be fa bd 56 63 c3 bd f8 63 a2 be
       -0.5552543 -0.12243309 -0.09540431 -0.31716895
000070 67 28 08 bf be 48 4d 3d 9b b6 1e be 31 90 3e bf
       -0.5318665 0.0501182 -0.15499346 -0.7443877
000080 f5 70 5a bd 70 a1 fd 3c 3c 07 4c be e8 46 81 be
       -0.05333038 0.030960768 -0.19924635 -0.2524941
000090 f1 f7 61 be 2b a8 cc be e7 db 82 be 95 29 7e be
       -0.22067238 -0.39972052 -0.25558397 -0.2482055
0000a0 1e 2f e8 bc 32 01 83 be b5 a5 70 be 66 f0 1c be
       -0.02834278 -0.2558685 -0.23500712 -0.1532608
0000b0 83 c8 1a be d8 a9 40 be 3c d0 55 3d c4 60 7c be
       -0.15115552 -0.1881479 0.05220054 -0.24646288
0000c0 56 ed 03 be f7 ee 0e be 71 ca 3c be 01 e9 31 be
       -0.12883505 -0.13958345 -0.184366 -0.1737404
0000d0 53 55 d9 bd 24 76 02 be e8 7f 4b 3d aa 33 1c 3d
       -0.106119774 -0.1274038 0.049682528 0.03813521
0000e0 0a 66 90 be ec 4a 56 be 8a 31 fd bc 63 c7 ad be
       -0.2820285 -0.20927018 -0.030907411 -0.33941182
0000f0 60 27 bf be cd 40 8d bd 2e e9 39 be 78 36 91 bb
       -0.37334728 -0.068971254 -0.18155357 -0.004431542
000100 4f 10 bb bf 3e a8 16 be 91 71 99 3f 41 17 50 40
       -1.4614352 -0.14712617 1.1987783 3.2514193
000110 75 da 2b 3f 84 9b b5 bd ab ac fa 3f 03 d7 7e bf
       0.67130214 -0.08867553 1.9583944 -0.9954683
000120 f4 4b d0 3e ac 47 07 3f 8c 2d fd 3f ed dd 48 40
       0.40682948 0.5284374 1.9779525 3.1385453
000130 e5 29 df 3d 5e 31 89 be 89 2b 1b c0 d6 5f d0 3f
       0.108966626 -0.26795477 -2.4245322 1.6279247
000140 3b a6 1d 3c fb 44 d0 3e 6a 52 5e bf 44 9a 92 3d
       0.009622152 0.40677628 -0.86844504 0.0715833
000150 b7 59 83 3e b1 83 ce bd e6 cf b4 3f 04 3f 19 be
       0.25654384 -0.10083712 1.4125946 -0.14965445
000160 4d 9d b7 bf d4 54 9e be 3c 4f 3d 40 05 80 03 c0
       -1.4344879 -0.30924094 2.957961 -2.0546887
000170 b4 a9 d2 3f 74 ea fb 3e 48 60 2f bd ac b2 f5 bf
       1.6458039 0.4920231 -0.04281643 -1.9195151
000180 d7 1a 03 bd 39 df 40 be 40 69 9f bc 92 98 ee bd
       -0.03200802 -0.18835153 -0.019459367 -0.11650194
000190 c8 39 1f bd 37 62 16 3d 16 a9 9a bc d2 40 21 3d
       -0.038873464 0.03671476 -0.018879455 0.039368458
0001a0 4e 0b 6d bd 6e 38 91 be d6 61 02 bf a9 c3 93 3c
       -0.05787211 -0.28363365 -0.50930536 0.018037634
0001b0 74 2f 96 be 16 29 53 3d 1e 63 17 be 97 70 1d be
       -0.2933308 0.051552854 -0.14783904 -0.15374981
0001c0 7e 41 84 3e 92 08 c7 bd 09 79 ec 3b da 1c 8c be
       0.25831217 -0.097184315 0.007216577 -0.27365762
0001d0 27 5b 29 bd d8 37 5d 3e 47 4e 3e 3d 21 47 d9 3b
       -0.041346695 0.21603334 0.04646137 0.0066307937
0001e0 64 f4 2e bd 0f 83 3f be b6 3c 84 bc b0 a1 56 be
       -0.042713538 -0.18702339 -0.01614223 -0.20960116
0001f0 40 5c 31 be 12 ab 60 be 65 b6 a6 3c 84 58 8d bd
       -0.17320347 -0.21940258 0.020350644 -0.06901649
000200 b8 3d 06 be 3e 2a 8d 3c 4f 9d 48 be 8b a2 c8 bd
       -0.13109481 0.017232057 -0.19591258 -0.097966276
000210 f7 c6 1a 3d e6 cf 82 bd 10 68 75 bd ca fd ba be
       0.037787404 -0.0638731 -0.059913695 -0.3652175
000220 b5 aa d5 bd 4f b0 22 be 35 95 a4 be 35 b3 27 be
       -0.104329504 -0.15887569 -0.32145086 -0.16376956
000230 af b4 e4 bc fc d2 8f be fc 82 f9 bd 08 ca 4b be
       -0.027918188 -0.28090656 -0.121831864 -0.19901288
000240 4d 00 ae bd 92 7b 2f be 88 85 c0 bc 00 84 c8 bd
       -0.08496151 -0.17136982 -0.023501173 -0.09790802
000250 5c 25 37 3d 67 cf ad 3d ef 7a 80 be dc ec 7b bd
       0.044713363 0.084868245 -0.2509379 -0.061505184
000260 55 c0 0e bd e0 b1 0a be 33 df b7 bd f5 c0 6e be
       -0.03485139 -0.13544416 -0.08978119 -0.23315795
000270 00 33 7e be 1c fa 1c be 88 3d 11 be bc 18 01 bc
       -0.24824142 -0.15329784 -0.14183629 -0.007879432
000280 52 87 47 40 e4 c9 2d c0 38 3e 13 c0 86 c9 f7 be
       3.1176343 -2.7154474 -2.3006725 -0.48395938
000290 e1 65 4e bf 03 5d 0f bf 8e d0 f1 3f 19 78 07 bf
       -0.80624205 -0.560013 1.8891771 -0.5291763
0002a0 d6 2c 06 40 a7 77 95 bf c0 f9 85 3e 32 b7 df be
       2.0964866 -1.167714 0.26167107 -0.43694454
0002b0 3e 13 1a be ae d5 af 3d 44 9c 88 3f 19 a4 84 3f
       -0.15046403 0.08585678 1.0672688 1.0362579
0002c0 e0 92 66 be fc 1c da 3f f9 90 92 40 b0 47 53 c0
       -0.22516966 1.7040095 4.580197 -3.3012505
0002d0 09 9c 82 be 1c 86 00 bd ed f3 5d 3f 0b 7d 58 40
       -0.2550967 -0.031377897 0.86700326 3.382632
0002e0 46 91 ae 3f aa e5 47 be 71 82 f3 3f 90 87 2a 3e
       1.3638084 -0.19521204 1.9024183 0.16653275
0002f0 17 d3 0a 40 75 e4 06 c0 3f 38 f8 3c e5 d3 48 40
       2.169134 -2.107694 0.030300258 3.137933
000300 18 88 2c bf b0 51 04 be de 17 5f 3f 4c 7d ee be
       -0.6739516 -0.12921786 0.87145793 -0.4657997
000310 c4 4a 34 be fa 69 ec 3d de 02 d8 3d 6b 1c 24 c0
       -0.17606646 0.11543651 0.10547422 -2.5642345
000320 1b 1b 81 be 0d c3 de 3f 66 7a 10 40 9e cf 9c 3f
       -0.25215992 1.7403275 2.2574706 1.225086
000330 e4 40 d5 3e d8 97 1a 3e 09 e0 0b c0 3f 2c 44 3e
       0.4165107 0.15096986 -2.185549 0.19157504
000340 d6 9b f9 3e 47 50 8a be bf ff 4e bf 4b c5 4e bf
       0.48751706 -0.27014372 -0.8085899 -0.80769795
000350 ab a2 80 bd 2a ba 0b be 48 5a af bf e9 95 33 3d
       -0.062810265 -0.13645235 -1.3699427 0.043844137
000360 9f 51 b9 bf a4 d8 90 3e fe 46 23 40 55 b3 01 c0
       -1.4478034 0.28290284 2.551208 -2.0265706
000370 62 14 ad 3f 19 23 f6 bf 26 e2 73 be 4c 6a 20 3e
       1.3521845 -1.9229461 -0.23816738 0.15665549
000380 62 17 c9 3d 77 3e 92 be 7d 09 98 bd 88 f3 e9 3c
       0.09818913 -0.28563282 -0.07423685 0.028558508
000390 44 ad 91 be a5 3d 8e be dc b7 21 be 16 d7 e1 bc
       -0.28452504 -0.27781406 -0.15792793 -0.027568381
0003a0 6f 01 2d bd 51 f4 ff bd 49 95 49 bd 27 6d 50 bd
       -0.042237695 -0.124977715 -0.049214635 -0.050885346
0003b0 66 e4 83 bd 1d 1f dd bd 49 c8 42 be 30 92 30 bd
       -0.06440048 -0.1079695 -0.19021715 -0.043108165
0003c0 7a ee 94 bd d1 e3 93 be 23 52 00 be 65 f7 da 3c
       -0.07272048 -0.28884748 -0.12531333 0.026729295
0003d0 50 59 ec bd 86 d8 5b be 39 b2 df 3d 48 e1 9e be
       -0.115404725 -0.21469316 0.10922665 -0.3103125
0003e0 9e d9 ac bd 13 6b b9 be 39 2f 9f be b0 04 00 bc
       -0.08439945 -0.36214504 -0.31090716 -0.007813618
0003f0 9e 1e c6 bd 69 2f 71 be 7a ed 6f bd 66 1f 2c be
       -0.096738085 -0.23553242 -0.058576085 -0.16808853

sequential_6/dense_26/MatMul f4 [64, 256]
000000 ad 39 bd 3d fe 97 5c 3c 1d 4f 00 bf 55 46 90 3d
       0.092395164 0.013463972 -0.5012072 0.07044665
000010 48 da e7 bd a8 e9 4b be 88 51 11 bf 3e 63 01 be
       -0.11320931 -0.19913352 -0.5676503 -0.12635514
000020 31 f8 83 bd 68 17 c5 3f 17 59 28 be 24 53 21 3d
       -0.06443823 1.5397768 -0.16440235 0.03938593
000030 fc 05 36 3e c6 86 95 3c c2 36 bd bc 49 32 a6 be
       0.1777572 0.018252742 -0.0230974 -0.3246024
000040 40 75 1d 3f 48 3d 37 be 03 90 25 bd 3a ff 13 3e
       0.61507034 -0.1789447 -0.040420543 0.1445283
000050 79 0b 7f be 17 60 86 be 64 5d 78 be 53 10 14 be
       -0.2490672 -0.26245186 -0.24254376 -0.14459352
000060 ab 72 85 bd 90 3d aa bd 3c db b6 3d f1 be 0f c0
       -0.06516012 -0.08312523 0.089285344 -2.2460291
000070 94 1d 03 be df 41 06 3f de 72 1c 3e be 1d 83 bd
       -0.12804252 0.5244426 0.15278193 -0.06402157
000080 b0 49 a1 3c 07 dc f5 3d e9 d0 11 bf d9 b2 98 be
       0.019688457 0.120048575 -0.56959397 -0.2982395
000090 61 1c 83 3b fe dd ed bd 08 67 97 3c b2 ac 07 be
       0.0040011858 -0.11614607 0.018481746 -0.13249472
0000a0 8d a9 95 bf b7 d3 1e be e1 cf 76 3d a8 06 04 be
       -1.1692368 -0.1551045 0.060256843 -0.12893164
0000b0 1c 9e 4c 3a 02 18 80 bd 55 5c c9 3e 86 ee df bd
       0.00078055426 -0.06254579 0.39328256 -0.109341666
0000c0 7d f2 fc 3d 2c 95 a2 3b ed 7e 9a bd 41 09 76 be
       0.123509385 0.0049616303 -0.075437404 -0.24026968
0000d0 a8 0f c8 3d 95 1a ae bc 8f 57 3a be c2 9f c4 3d
       0.09768611 -0.02125291 -0.18197463 0.09600784
0000e0 c9 c1 5a be 78 3d a0 bd 56 94 db bd bc 02 02 3e
       -0.21362986 -0.07824224 -0.10721652 0.12696356
0000f0 43 9e 97 bd 05 99 4e be 1a d2 f3 bd 30 67 88 3e
       -0.07403233 -0.2017556 -0.11905308 0.26641226
000100 4a 1f 35 be 65 22 3a be cd b6 0d 3e ba c4 58 bd
       -0.17687717 -0.18177183 0.13839264 -0.052921988
000110 27 1d 6d 3e 70 20 ce bd bf b6 91 3d 42 91 cf 3f
       0.23155652 -0.10064781 0.07114934 1.6216204
000120 07 0f 48 be ee 49 ca 3d 5a 8d 5f 3e b2 91 cb 3d
       -0.19536982 0.09877382 0.21831265 0.099398986
000130 a2 db 35 be c9 7d 6d be 6c 09 32 be 78 e5 0d bd
       -0.17759565 -0.23192514 -0.17386407 -0.034642667
000140 99 91 8b 3f 7e ea d2 be 32 b5 04 be 0c d2 07 bd
       1.0903808 -0.41194528 -0.12959746 -0.0331593
000150 f9 79 15 3e 7d 54 df 3e 74 ba ae bd 1f c8 fc bd
       0.1459731 0.43619147 -0.08531657 -0.123428576
000160 5b 09 86 be 77 5c af bd 64 33 d9 bd bd 22 b8 3e
       -0.26179013 -0.08562558 -0.10605505 0.35964003
000170 32 f5 06 be 17 aa 1e bd 1b 8c 54 be 1d 12 d4 3e
       -0.13179472 -0.03873643 -0.20756571 0.4142007
000180 ff 92 99 bd 23 18 9a bd c3 35 ed bd 1e 73 f2 be
       -0.074987404 -0.07524135 -0.1158252 -0.47353452
000190 fe 7c 5c 3d 1b c7 7f be f6 9d be 3d b9 1a a1 bd
       0.05383014 -0.24978296 0.093074724 -0.07866425
0001a0 da 8e 01 3a 9e 49 12 be c0 e0 ef bb c2 bd 94 be
       0.0004942246 -0.14285895 -0.0073204935 -0.29051024
0001b0 df 11 1f be f1 f5 94 bf 6c 02 82 bd 40 f6 82 bd
       -0.15534161 -1.1637555 -0.06348118 -0.06394625
0001c0 61 02 13 be ee 58 88 be 9e 94 d5 3c c6 e2 16 be
       -0.14356376 -0.26630348 0.026071843 -0.14734945
0001d0 09 af 73 bd a8 d4 43 bf 26 ef 20 bd 49 bf 65 be
       -0.0594931 -0.7649636 -0.03929057 -0.22436251
0001e0 92 d7 13 bd b7 50 54 bf 09 9c 51 3c d9 c0 8a be
       -0.036094256 -0.8293566 0.012793549 -0.27100256
0001f0 21 21 ec 3e b8 16 16 be b4 dd 5a bf e1 f2 09 be
       0.46119025 -0.14657104 -0.8549454 -0.13471557
000200 e0 ea 12 bf be 39 eb bc 81 fe c4 bc 2d 1d aa bd
       -0.5738964 -0.028714057 -0.024047138 -0.08306346
000210 f2 19 f8 be 76 04 82 be 92 ca c9 be 24 29 0c be
       -0.48457295 -0.25394028 -0.3941236 -0.13687569
000220 4f f0 a1 bd 12 20 5d be 92 82 88 3d ad 31 82 be
       -0.07907163 -0.21594265 0.06665529 -0.25428525
000230 ec 47 64 be f3 30 02 3d 06 50 38 3d 1d 9e 05 bd
       -0.22293061 0.031784963 0.04499819 -0.03262149
000240 ec d8 b1 be fa 16 23 bd 63 3e 9d bd 9c 37 cc 3d
       -0.3473581 -0.039816834 -0.07677915 0.09971544
000250 5a a2 b9 bc 3f 83 e9 bc 44 fa 8a bd 71 2b ac bd
       -0.022660423 -0.028504966 -0.06786016 -0.08406723
000260 5e 4a f8 bd a1 8b e6 bd db 10 11 3c b7 a4 8f be
       -0.121235594 -0.11257101 0.008854116 -0.28055355
000270 22 ed 1b be b1 c2 e4 bc e1 60 66 be a1 95 2c be
       -0.15227178 -0.027924867 -0.22497894 -0.16853954
000280 09 34 eb bc 03 c7 13 be 18 a7 72 bd df 84 83 be
       -0.028711336 -0.14431386 -0.059241384 -0.2568731
000290 eb 45 b4 3f 7d 85 42 3e 2e 0f 8f be e0 c3 83 bd
       1.4083837 0.18996234 -0.2794127 -0.064338446
0002a0 97 3d d5 bd f1 38 25 be 86 ca 23 be d3 95 00 bd
       -0.10412138 -0.16135003 -0.15995225 -0.031392884
0002b0 2c 4d 0a bd fe 9f 70 be 04 85 36 3d df 4d 20 be
       -0.033765003 -0.23498532 0.044560447 -0.15654705
0002c0 9d 8f 43 be e8 6e 81 bc 9e 29 67 bf 96 c2 40 bc
       -0.19097753 -0.015799955 -0.9029788 -0.011765143
0002d0 c7 23 14 bf 6c c6 35 3c 74 41 20 be 77 0e bd 3e
       -0.5786709 0.011094671 -0.15649968 0.36925098
0002e0 12 87 24 be 7b ba 89 be 50 b5 db bd 66 99 3a be
       -0.1606715 -0.26900086 -0.10727942 -0.1822258
0002f0 53 f1 ad 3d ff 20 27 3c e0 3a b4 bd aa 31 2f 3e
       0.084932946 0.010200738 -0.08800292 0.17108789
000300 29 a1 18 be a4 37 9a 3e ce 79 16 be d0 b9 95 bd
       -0.14905228 0.30120575 -0.14694902 -0.073108315
000310 25 d4 91 be c0 76 22 bc 6c 96 1f be e1 74 89 3c
       -0.28482166 -0.0099160075 -0.15584725 0.016779365
000320 70 19 4b be a8 94 8a 3e eb 18 83 3c e7 18 e1 bd
       -0.19833922 0.2706654 0.016003093 -0.10991078
000330 6f 52 e5 3d a5 2b 9b bb d1 1e de bb ac 16 80 bd
       0.111973636 -0.0047354274 -0.006778576 -0.06254324
000340 d3 3b 1f be 87 b2 c6 3e 01 a2 91 bd e2 e0 cf bc
       -0.15550165 0.3880808 -0.07110978 -0.025375787
000350 14 ef 8d 3d 16 01 67 be 05 c4 7d be 2a 2f 6d be
       0.06930366 -0.22559008 -0.24781807 -0.23162523
000360 2d 53 de 3e 40 da c9 bc 5d 10 c8 3d 40 d3 f1 3d
       0.43422833 -0.024640203 0.09768746 0.11807871
000370 c8 11 ef 3b 53 93 e0 bd 8c 18 32 bd 48 37 50 3d
       0.007295821 -0.109656 -0.04348044 0.05083397
000380 81 e2 7c bc ca b2 c5 bd b4 61 5d be 07 59 86 3d
       -0.015434862 -0.09653242 -0.21619302 0.06559949
000390 b0 dc 85 be 48 89 51 3c 79 3f 11 be fe f5 a2 3e
       -0.26144934 0.012789078 -0.14184369 0.31828302
0003a0 01 93 14 bd 60 1f fc bd 79 9f bb 3c eb b0 23 be
       -0.036273006 -0.12310672 0.02290319 -0.15985458
0003b0 77 dc a7 bf 99 d3 4e 3d 42 7f b7 bd fb 26 81 3f
       -1.3114156 0.050494764 -0.089598194 1.0090021
0003c0 96 eb 69 3c f6 0e 56 be 2c ff 80 bd 73 59 e3 bd
       0.0142773595 -0.20904145 -0.0629867 -0.111010455
0003d0 fc 0e 57 be c8 12 05 bd 93 2f e9 bd 03 18 31 be
       -0.2100181 -0.032488614 -0.11386027 -0.17294316
0003e0 48 e8 20 3d 69 37 16 be 7f ea 33 be 10 74 2c be
       0.03928402 -0.14669575 -0.17569922 -0.1684115
0003f0 c3 5c 3b 3e af b3 54 bf f0 b3 45 bd ef 5b aa 3d
       0.18297105 -0.83086675 -0.048267305 0.08318316

sequential_6/dense_27/MatMul f4 [1, 64]
000000 03 77 95 be 25 77 b3 ba 99 c9 ce bd 06 66 b8 3d
       -0.2919236 -0.0013692124 -0.100970455 0.090038344
000010 75 78 86 3d 3b 2e 38 3d 85 68 67 3d 21 ea 44 3d
       0.06565944 0.044965964 0.056496162 0.048074845
000020 88 60 c8 bc f1 45 08 be 68 99 d2 bd 84 68 48 3d
       -0.024460092 -0.1330793 -0.10283166 0.0489278
000030 05 4b 85 3c 92 a8 62 3c 60 ac 4e bc 00 b6 83 3d
       0.016271124 0.013834136 -0.01261434 0.06431198
000040 2b 2e f8 3d 40 a5 09 bd 18 b1 ef 3d b5 33 93 bd
       0.12118181 -0.03360486 0.117037 -0.07187597
000050 c4 33 53 bd 67 ef 03 3e b4 6d 11 3d 04 31 05 3e
       -0.05156304 0.12884293 0.03550501 0.13006979
000060 7b 65 d0 3d 6e bf b5 3c 8e b8 13 bd 14 49 cf 3d
       0.10175606 0.022186007 -0.036064677 0.101213604
000070 87 47 fa bd 6a b7 6c be 9f f0 80 3c 54 7e 03 3e
       -0.12220674 -0.23116842 0.015739737 0.12841159
000080 e3 e0 7f 3d b2 85 8b be 22 74 d1 bd fa 2a f7 bc
       0.062470328 -0.2725044 -0.10227229 -0.03017186
000090 9c 2a fd 3d 76 ad e3 3d 7c ec 3f bd 5f 19 06 3d
       0.12361643 0.111170694 -0.04685639 0.03273904
0000a0 26 72 44 3c be a1 08 3e 1a d3 ca 3d 8f 4c 9a be
       0.011990106 0.1334295 0.09903546 -0.30136535
0000b0 59 8e 3c be 05 75 c5 3d 85 ca ab 3d b9 05 68 bd
       -0.18413676 0.0964146 0.08388237 -0.056646083
0000c0 75 38 ef 3a 09 85 f6 3c 88 70 df 3d d2 7b 60 bd
       0.0018251078 0.030092733 0.109101355 -0.054805584
0000d0 45 35 10 3e a8 7b 17 3d 1d 76 2d bd 99 1f b9 3c
       0.1408282 0.036983162 -0.04234897 0.022598075
0000e0 98 35 01 be 1c 4c c2 bc 96 82 c9 3d 75 e2 e8 bc
       -0.126181 -0.023717932 0.098393604 -0.028428296
0000f0 ce 37 8b bc cb 5f ea bd 77 f1 9e be 4f a4 d5 3c
       -0.016994383 -0.11444052 -0.31043598 0.026079325
